qa/L0_libtorch_instance_group_kind_model/models/libtorch_multi_devices/1/model.pt (torch, 5558 bytes, 4 tensors)

weight f4 [4, 16]
00000000: 4019 1dbd 8676 2c3e 7843 153e 9639 1fbe
00000010: 8011 2ebb 4092 01bc 985f 9dbd 9a88 453e
00000020: 666c 41be f4e7 b0bd 70a7 93bc ac4f 403e
00000030: bee7 3bbe 8871 163e 642c 953d d8f4 2c3d
00000040: f6f7 013e 6094 0f3c c4a6 f8bd d815 fc3d
00000050: 9c14 14be 004c e339 4624 2abe f8fb f7bd
00000060: a833 1fbe 98e8 b03d 1c52 c3bd 4878 4bbd
00000070: 2a7a 3abe c067 f83b c876 abbd 5a55 7b3e
00000080: 287c 04bd c0cf 03be e20c 643e f8fd f73d
00000090: ec78 11be a692 50be d05b 62be a046 353d
000000a0: c8cf c73d 6a03 1dbe e084 30bd 96c0 2f3e
000000b0: 9cdd a23d 360c 5b3e cc78 59be e2cd 60be
000000c0: f0d9 d6bc 38f2 41be 74e4 59be f042 efbd
000000d0: 40f9 95bd 08df ac3d 768b 07be b045 bb3d
000000e0: 10a1 9c3c 9002 1cbd b0a5 4d3e 5043 193e
000000f0: f403 2b3e d0b8 c33c d44a 4b3e 2220 463e
-0.03835416 0.16842088 0.14576519 -0.15549311 -0.0026560724 -0.007908404 -0.07684249 0.1929039
-0.18889007 -0.086379915 -0.018024176 0.18780392 -0.18350121 0.14691746 0.072838575 0.04222569
0.12692246 0.008763403 -0.12141183 0.12308854 -0.14460987 0.00043353438 -0.166154 -0.12108606
-0.15547049 0.08638114 -0.095371455 -0.049675256 -0.18210664 0.0075807273 -0.08372265 0.24544278
-0.032344967 -0.12872219 0.2227054 0.121089876 -0.14206284 -0.20368442 -0.22105336 0.044256806
0.09756428 -0.15333334 -0.04309547 0.1716331 0.07952425 0.21391377 -0.21237487 -0.21953538
-0.026226968 -0.18940055 -0.21278554 -0.11682689 -0.07322931 0.08440977 -0.13236794 0.09144151
0.01911977 -0.03808838 0.20082736 0.14967084 0.16700727 0.023891836 0.19852763 0.19348195

bias f4 [4]
00000000: 5071 9abc a81d 31be 3815 7d3d a064 e33d
-0.01885286 -0.17296469 0.061787814 0.11103177

weight f4 [4, 16]
00000000: d886 32bd e8dd 963d 9405 74be b0d2 26bd
00000010: 8e74 17be 58b3 c53d 08c9 6abd 08e2 66be
00000020: 609c 323e f0eb 6e3d 00ab a7bb 30f2 933c
00000030: 386c 633e 007d dc3d 4087 1abe a282 143e
00000040: 10d6 7fbe 6c4c 883d b8a0 2ebd 749e bb3d
00000050: 006d dabd 401d bc3d 5cac 043e a842 64be
00000060: 90f6 283e 3ace 573e 9a74 03be 5817 60bd
00000070: 1cfd 04be 00bf 67be 2e26 0ebe 186a 763e
00000080: 5e14 5a3e e897 59be 3e2e 353e 38c8 1cbe
00000090: 3035 1b3e ecd7 763e 80d6 0bbe fc76 883d
000000a0: 441a 12be 70ea 2e3e 6836 313d 32f7 47be
000000b0: b004 7ebe ee86 78be 8ccd 5fbe 18fe 3b3d
000000c0: b0ef 553d 8a47 5ebe 68a8 193d b888 f63d
000000d0: 38fe 57bd 203a 27bd c879 35be ce24 243e
000000e0: a0f7 1cbd 1879 053e 3095 0abd a451 353e
000000f0: da8c 23be f032 debc 9cfa 26be d446 80bd
-0.04358563 0.07366544 -0.23830253 -0.04072827 -0.14790556 0.09653348 -0.057320625 -0.22547162
0.17442465 0.058330476 -0.0051168203 0.01805982 0.22209251 0.10766029 -0.15090656 0.14502957
-0.24984002 0.06655201 -0.042633742 0.09161082 -0.10665321 0.091852665 0.12956375 -0.22291052
0.16500306 0.21074763 -0.12837449 -0.054709762 -0.12987179 -0.22631454 -0.13881752 0.24063909
0.21296832 -0.21249354 0.17693421 -0.15310752 0.15157008 0.24105805 -0.13656044 0.066633195
-0.14267832 0.17081618 0.043264776 -0.19527891 -0.24806476 -0.24270222 -0.21855754 0.04589662
0.052230537 -0.21706977 0.03751412 0.12037796 -0.052732676 -0.040826917 -0.17722237 0.16029665
-0.03832209 0.13034475 -0.033833683 0.17706925 -0.159717 -0.027123898 -0.16306537 -0.062635094

bias f4 [4]
00000000: 0098 22bd a07b 3bbc 3882 a83d a8cd b8bd
-0.03969574 -0.011443049 0.08227962 -0.09023601
